/workspace/pytorch_project_template-main/.venv/lib/python3.11/site-packages/torch/nn/utils/weight_norm.py:134: FutureWarning: `torch.nn.utils.weight_norm` is deprecated in favor of `torch.nn.utils.parametrizations.weight_norm`.
  WeightNorm.apply(module, name, dim)
HiFiGANGeneratorV2(
  (pre): Conv1d(80, 128, kernel_size=(7,), stride=(1,), padding=(3,))
  (ups): ModuleList(
    (0): ConvTranspose1d(128, 64, kernel_size=(16,), stride=(8,), padding=(4,))
    (1): ConvTranspose1d(64, 32, kernel_size=(16,), stride=(8,), padding=(4,))
    (2): ConvTranspose1d(32, 16, kernel_size=(4,), stride=(2,), padding=(1,))
    (3): ConvTranspose1d(16, 8, kernel_size=(4,), stride=(2,), padding=(1,))
  )
  (mrfs): ModuleList(
    (0): MRF(
      (blocks): ModuleList(
        (0): ResBlock1(
          (convs1): ModuleList(
            (0): Conv1d(64, 64, kernel_size=(3,), stride=(1,), padding=(1,))
            (1): Conv1d(64, 64, kernel_size=(3,), stride=(1,), padding=(3,), dilation=(3,))
            (2): Conv1d(64, 64, kernel_size=(3,), stride=(1,), padding=(5,), dilation=(5,))
          )
          (convs2): ModuleList(
            (0-2): 3 x Conv1d(64, 64, kernel_size=(3,), stride=(1,), padding=(1,))
          )
        )
        (1): ResBlock1(
          (convs1): ModuleList(
            (0): Conv1d(64, 64, kernel_size=(7,), stride=(1,), padding=(3,))
            (1): Conv1d(64, 64, kernel_size=(7,), stride=(1,), padding=(9,), dilation=(3,))
            (2): Conv1d(64, 64, kernel_size=(7,), stride=(1,), padding=(15,), dilation=(5,))
          )
          (convs2): ModuleList(
            (0-2): 3 x Conv1d(64, 64, kernel_size=(7,), stride=(1,), padding=(3,))
          )
        )
        (2): ResBlock1(
          (convs1): ModuleList(
            (0): Conv1d(64, 64, kernel_size=(11,), stride=(1,), padding=(5,))
            (1): Conv1d(64, 64, kernel_size=(11,), stride=(1,), padding=(15,), dilation=(3,))
            (2): Conv1d(64, 64, kernel_size=(11,), stride=(1,), padding=(25,), dilation=(5,))
          )
          (convs2): ModuleList(
            (0-2): 3 x Conv1d(64, 64, kernel_size=(11,), stride=(1,), padding=(5,))
          )
        )
      )
    )
    (1): MRF(
      (blocks): ModuleList(
        (0): ResBlock1(
          (convs1): ModuleList(
            (0): Conv1d(32, 32, kernel_size=(3,), stride=(1,), padding=(1,))
            (1): Conv1d(32, 32, kernel_size=(3,), stride=(1,), padding=(3,), dilation=(3,))
            (2): Conv1d(32, 32, kernel_size=(3,), stride=(1,), padding=(5,), dilation=(5,))
          )
          (convs2): ModuleList(
            (0-2): 3 x Conv1d(32, 32, kernel_size=(3,), stride=(1,), padding=(1,))
          )
        )
        (1): ResBlock1(
          (convs1): ModuleList(
            (0): Conv1d(32, 32, kernel_size=(7,), stride=(1,), padding=(3,))
            (1): Conv1d(32, 32, kernel_size=(7,), stride=(1,), padding=(9,), dilation=(3,))
            (2): Conv1d(32, 32, kernel_size=(7,), stride=(1,), padding=(15,), dilation=(5,))
          )
          (convs2): ModuleList(
            (0-2): 3 x Conv1d(32, 32, kernel_size=(7,), stride=(1,), padding=(3,))
          )
        )
        (2): ResBlock1(
          (convs1): ModuleList(
            (0): Conv1d(32, 32, kernel_size=(11,), stride=(1,), padding=(5,))
            (1): Conv1d(32, 32, kernel_size=(11,), stride=(1,), padding=(15,), dilation=(3,))
            (2): Conv1d(32, 32, kernel_size=(11,), stride=(1,), padding=(25,), dilation=(5,))
          )
          (convs2): ModuleList(
            (0-2): 3 x Conv1d(32, 32, kernel_size=(11,), stride=(1,), padding=(5,))
          )
        )
      )
    )
    (2): MRF(
      (blocks): ModuleList(
        (0): ResBlock1(
          (convs1): ModuleList(
            (0): Conv1d(16, 16, kernel_size=(3,), stride=(1,), padding=(1,))
            (1): Conv1d(16, 16, kernel_size=(3,), stride=(1,), padding=(3,), dilation=(3,))
            (2): Conv1d(16, 16, kernel_size=(3,), stride=(1,), padding=(5,), dilation=(5,))
          )
          (convs2): ModuleList(
            (0-2): 3 x Conv1d(16, 16, kernel_size=(3,), stride=(1,), padding=(1,))
          )
        )
        (1): ResBlock1(
          (convs1): ModuleList(
            (0): Conv1d(16, 16, kernel_size=(7,), stride=(1,), padding=(3,))
            (1): Conv1d(16, 16, kernel_size=(7,), stride=(1,), padding=(9,), dilation=(3,))
            (2): Conv1d(16, 16, kernel_size=(7,), stride=(1,), padding=(15,), dilation=(5,))
          )
          (convs2): ModuleList(
            (0-2): 3 x Conv1d(16, 16, kernel_size=(7,), stride=(1,), padding=(3,))
          )
        )
        (2): ResBlock1(
          (convs1): ModuleList(
            (0): Conv1d(16, 16, kernel_size=(11,), stride=(1,), padding=(5,))
            (1): Conv1d(16, 16, kernel_size=(11,), stride=(1,), padding=(15,), dilation=(3,))
            (2): Conv1d(16, 16, kernel_size=(11,), stride=(1,), padding=(25,), dilation=(5,))
          )
          (convs2): ModuleList(
            (0-2): 3 x Conv1d(16, 16, kernel_size=(11,), stride=(1,), padding=(5,))
          )
        )
      )
    )
    (3): MRF(
      (blocks): ModuleList(
        (0): ResBlock1(
          (convs1): ModuleList(
            (0): Conv1d(8, 8, kernel_size=(3,), stride=(1,), padding=(1,))
            (1): Conv1d(8, 8, kernel_size=(3,), stride=(1,), padding=(3,), dilation=(3,))
            (2): Conv1d(8, 8, kernel_size=(3,), stride=(1,), padding=(5,), dilation=(5,))
          )
          (convs2): ModuleList(
            (0-2): 3 x Conv1d(8, 8, kernel_size=(3,), stride=(1,), padding=(1,))
          )
        )
        (1): ResBlock1(
          (convs1): ModuleList(
            (0): Conv1d(8, 8, kernel_size=(7,), stride=(1,), padding=(3,))
            (1): Conv1d(8, 8, kernel_size=(7,), stride=(1,), padding=(9,), dilation=(3,))
            (2): Conv1d(8, 8, kernel_size=(7,), stride=(1,), padding=(15,), dilation=(5,))
          )
          (convs2): ModuleList(
            (0-2): 3 x Conv1d(8, 8, kernel_size=(7,), stride=(1,), padding=(3,))
          )
        )
        (2): ResBlock1(
          (convs1): ModuleList(
            (0): Conv1d(8, 8, kernel_size=(11,), stride=(1,), padding=(5,))
            (1): Conv1d(8, 8, kernel_size=(11,), stride=(1,), padding=(15,), dilation=(3,))
            (2): Conv1d(8, 8, kernel_size=(11,), stride=(1,), padding=(25,), dilation=(5,))
          )
          (convs2): ModuleList(
            (0-2): 3 x Conv1d(8, 8, kernel_size=(11,), stride=(1,), padding=(5,))
          )
        )
      )
    )
  )
  (post): Conv1d(8, 1, kernel_size=(7,), stride=(1,), padding=(3,))
)
Loading checkpoint: /workspace/pytorch_project_template-main/saved/hifigan_full_long/checkpoint-epoch70.pth
/workspace/pytorch_project_template-main/src/trainer/hifigan_trainer.py:130: FutureWarning: You are using `torch.load` with `weights_only=False` (the current default value), which uses the default pickle module implicitly. It is possible t
…
